modelDummy.onnx (onnx, 195848 bytes, 6 tensors)

linear_layers.0.weight f4 [84, 576]
00000000: af3c 01bd eadd c73b 914a 09bd 2e8e 233a
00000010: a037 03bd 7f00 1cbc 9b68 be3c cdc4 1e3c
00000020: 9152 f83c 8b5f adbb 5da6 7abc 8b3b 0ebd
00000030: 2450 d13c b07b 17bd 1984 533b 8512 9fba
00000040: de0f c3bc 4c61 43bd 6fec ae3c 6cb0 913c
00000050: f44b 2d3d f185 2cbd 4464 dcbc a9d9 0a3c
00000060: 6377 a13c 19ef d4bb f194 10bd ee19 2bbc
00000070: a885 23bc 89c5 e03c 0ddd 963b 3017 753c
00000080: 74b4 aabc 5386 65bd 4941 aabc c772 823a
00000090: 9a85 ac3c 91ed 6e3c ecc7 a93c 8f55 6bbd
000000a0: bae1 973c cb9d 09bd c270 b23c 49b8 a93c
000000b0: aa27 32bb b617 d73b b926 de3c 2f54 3c3c
000000c0: 22f2 9ebc fcb9 0a3d ccd7 e9bc e4a8 15bd
000000d0: 0b13 ac3c 6e64 b53c 1597 25bc 61f4 3039
000000e0: 1235 b5bc 6a18 813b 150d 02bd ea2f 60bd
000000f0: e8f3 0cbd ced3 3c3c 1941 09bd 0319 823c
00000100: 1eb9 81bc cdb9 d8bc a7fa 7dbc 021b 85bc
00000110: 8435 14bc 4cc2 46ba f7ad 25bd 4c6e 49bc
00000120: 9366 6c3c c2b3 a7bc a1fc 7a3c f0e4 88bb
00000130: 643a a7bc 4b07 6dbc 8b65 703c e124 ba3b
00000140: 9670 bdbb 1923 3e3c 8c31 2c3b 0e36 a33b
00000150: 1001 2dbd 4614 853c 4f43 463d bca4 c2ba
00000160: f60c 8f3b 15d5 71bc ebfe 733c bfde e8bc
00000170: cc42 39bd 9c7d 39bd be1e bebb f1a4 4a3c
00000180: 4281 fcbc 3abc 013d 9e9a 093d 038b b7bc
00000190: 793d f53c 4857 c6bc c2e9 b4bc 4cb5 0dbd
000001a0: 3eaa d1bb 50b3 e33b 79f7 45bc cf91 55bc
000001b0: 1ced 883c 04a5 d5bb 5091 1e3d f7ad 6d3c
000001c0: e651 923c d205 dd3c eb2b a63b f526 96ba
000001d0: af01 a5bb 1d94 6e3c e26f 13bd 4051 c53b
000001e0: 3636 cbbc 98a9 8c3b 0d2d 4b3c 2a30 f03c
000001f0: 4ecd 193d a080 1abd cf5e 04bd 5015 943c
00000200: dfb7 fd3a 7ad5 173c 35fd 0ebd 9f6e 4bbd
00000210: 69bb 01bd 90fd 51bc 0682 39bc e9c9 b3bc
00000220: 58f5 b4bb 045b 673b f030 d03b ede8 c63c
00000230: 52e0 b3bc 2256 913c baf9 ed3b 82fe 803c
00000240: 96af 053d 6fd9 663c d435 27bd bb60 23ba
00000250: e0b2 fdbb 870b 1f3c e14b 51bc f6c8 0a3d
00000260: efb2 233b 02c0 16bd 0a98 74bc c705 d73c
00000270: cf81 203d 3077 3abd c8cf fdbc 2872 a5bb
00000280: b26d 28bd f362 6c3d b535 923c 2fbe b73b
00000290: a94b 72bd 790b 88bc 6c24 a53c b90c 8a3b
000002a0: 60a4 7d3d f9fa f83b fa0b 24bc bafb ebbc
000002b0: cef7 b03c 9917 6a3d be0d eb3c 1997 b53c
000002c0: a58c a93c 2d16 3abd ee6c 553c de45 1dbd
000002d0: 4740 6b3d 0cbb d43c fffd 5bbc 8491 76bb
000002e0: da55 3bbc 23ec df3a ca01 93bc 8270 a5bb
000002f0: 4183 01bd 1a99 b7bc 0904 b03c a84c be3a
00000300: 0b0b aa3d 1293 0dbd ee4a 133d 0da0 0bbd
00000310: 3f1d c9bb 18f5 1f3d 8120 e4bb 079e 23bd
00000320: 4aec f2bc d7c2 66bd 3d91 3c3d 95fa 693d
00000330: 288d fc3c eb61 a23c 4831 423d 6688 433d
00000340: 5b05 03bc 7114 493c ff1c 3cbd 0c8e 89bc
00000350: 7346 823a 7de8 8dbb cede 6238 2d99 1fbb
00000360: cc96 d23d 1ec6 573c 1a20 36bd 025f 11bc
00000370: 50c1 a93c 2dd5 0dbd 33ad c7bc 6f67 9abc
00000380: 9750 42bd d3ab b63c be96 063c 1b9f 44bd
00000390: fa84 4f3d 5172 033d 9a2a 2fb9 a84a 2b3d
000003a0: 3083 dfbc 3402 8d39 f9a6 bbba c0c2 9d3a
000003b0: 844a a13c 5c5e 003d f335 ecbc f926 e23c
000003c0: d8c0 893d 12aa 163d c8d8 313d 13fd 533c
000003d0: 3600 0abd 5a96 91bb c1d9 59bd ae5b c4ba
000003e0: b2c0 1bbd 631e 3c3c 03d7 823b 9d10 40bc
000003f0: b794 dd3c ad05 e7bc 94cf 4d3c 2639 60bd
-0.031552013 0.0060994523 -0.033518378 0.0006239143 -0.03203547 -0.009521603 0.02324324 0.009690476
0.030312808 -0.0052909306 -0.015298453 -0.034724753 0.02555091 -0.036983192 0.0032274781 -0.0012136257
-0.023811277 -0.04770021 0.021352975 0.01778432 0.042308763 -0.042119924 -0.02690328 0.008474746
0.019710248 -0.006498229 -0.03529829 -0.010443194 -0.009980597 0.027437942 0.004603988 0.014959142
-0.020838 -0.056036305 -0.020783084 0.0009952419 0.0210598 0.014583007 0.020725213 -0.057454642
0.018540252 -0.03359775 0.021782283 0.020717757 -0.0027184286 0.006564106 0.027118074 0.01149468
-0.019402567 0.033868775 -0.028545283 -0.03653802 0.021005174 0.022142615 -0.010106822 0.00016875706
-0.022120032 0.003939678 -0.031750757 -0.054733194 -0.034412295 0.011525108 -0.033509348 0.015881067
-0.015835341 -0.026455784 -0.015501655 -0.01624823 -0.009045962 -0.0007582053 -0.04044911 -0.012294363
0.0144287525 -0.020471457 0.0153190205 -0.004177682 -0.020413585 -0.014467071 0.014672647 0.005680666
-0.0057812436 0.011605048 0.002627465 0.004980809 -0.04223734 0.016245019 0.048404034 -0.001485012
0.0043655587 -0.014760275 0.01489232 -0.028426526 -0.045229718 -0.045285806 -0.0058020046 0.012368427
-0.030823354 0.031673647 0.03359472 -0.022405153 0.029936539 -0.02421154 -0.02208412 -0.034596726
-0.0063984683 0.006948866 -0.012082928 -0.013035252 0.016714625 -0.0065199155 0.0387128 0.0145068085
0.017861318 0.026980314 0.0050711534 -0.0011455702 -0.005035601 0.01456168 -0.03599537 0.0060216486
-0.024806123 0.004292678 0.012400878 0.029319841 0.03754931 -0.037720323 -0.03231698 0.018076569
0.0019357166 0.009267205 -0.034909446 -0.049666043 -0.03167287 -0.012816802 -0.011322504 -0.021946864
-0.0055224113 0.0035302052 0.00635349 0.02428099 -0.02195755 0.017741267 0.0072624357 0.015746359
0.032638155 0.014089926 -0.04082282 -0.00062323705 -0.007742271 0.009707338 -0.012774439 0.033883058
0.002497848 -0.036804207 -0.014928827 0.026247872 0.039186295 -0.045523822 -0.030982867 -0.005049009
-0.04112024 0.057711553 0.017847875 0.0056073884 -0.059154186 -0.016607033 0.020158969 0.0042129424
0.06192434 0.0075982776 -0.010012621 -0.028806556 0.021602537 0.05715141 0.028693076 0.022166776
0.020696947 -0.045431305 0.013026459 -0.03839671 0.057434347 0.025968097 -0.013427257 -0.0037623355
-0.011434043 0.0017083924 -0.017945189 -0.0050488124 -0.031619314 -0.022411872 0.0214863 0.0014518695
0.083028875 -0.034564085 0.03596013 -0.034088183 -0.0061375196 0.0390521 -0.0069618826 -0.03994563
-0.029653687 -0.056338158 0.046036948 0.05712374 0.030829027 0.019822082 0.04741028 0.0477375
-0.007996882 0.01227294 -0.04592609 -0.016791366 0.0009939208 -0.0043306933 5.4090102e-05 -0.0024352774
0.102826685 0.013169793 -0.04446421 -0.008872749 0.020722061 -0.03462713 -0.02437458 -0.01884815
-0.047440138 0.022298729 0.008214651 -0.048003297 0.050663926 0.032091442 -0.00016705171 0.041819245
-0.027284235 0.00026895257 -0.001431673 0.001203619 0.019688852 0.031339988 -0.028834319 0.027606474
0.06726235 0.036783285 0.04341963 0.012938756 -0.033691607 -0.004442972 -0.053186182 -0.0014980936
-0.038025565 0.011481854 0.0039929166 -0.011722711 0.027048452 -0.028200949 0.0125616975 -0.054742

linear_layers.0.bias f4 [84]
00000000: afec 4f3e 6e0e 583e eef2 5c3e ea02 4a3e
00000010: fe1b 213e c522 303e fded 7c3e 3eb2 3f3e
00000020: 13ad 4c3e bbfa 4c3e 1c07 143e e271 623e
00000030: 2df1 373e 5ee1 383e 764c bc3e f1dd bd3e
00000040: 909b b63e caed bf3e 35d5 d43e 1ec0 cc3e
00000050: 6ea0 d33e 8ef3 bd3e c1f3 c63e 7217 de3e
00000060: 0c09 c33e e675 c13e 26ba d53e 7819 ba3e
00000070: 8373 9d3e 5370 993e cba6 aa3e 2728 8d3e
00000080: 4cff a63e dee4 ad3e 7f4b 6d3e 76b4 eb3d
00000090: 49f5 043d 3c23 b73c 31b0 203c c658 18bd
000000a0: f27e aa3c 0d88 a03c e728 773d 60af 5c3c
000000b0: ae2a c33d 3a96 b53d 0d6e e33d ddac c73d
000000c0: 9a68 403d 6416 303d 8b52 263d 399c 8a3d
000000d0: 1391 c13d 147c cd3d 6c1a c93d f79d 553d
000000e0: 9fc8 7f3c 88f3 823d ea07 d73d 4301 8b3d
000000f0: 3807 813d 9c43 da3d ffa6 8a3d 0153 0e3e
00000100: 0878 f33d 7f29 d33d 61dd c23d 17ce d33d
00000110: 7228 7b3d 844d b33d e658 ad3d 770d 8d3d
00000120: 52d6 753b d2df f4ba 3fae 423d 41fd 4b3d
00000130: 99fd 543c d676 923d cdc8 ab3d 6503 c73d
00000140: e836 953d 942b 5e3c 8df7 903d fff5 313d
0.20305131 0.21099254 0.21577045 0.19727674 0.15733334 0.17200764 0.2470016 0.18720338
0.19987898 0.20017521 0.14455837 0.22113755 0.17963095 0.18054721 0.36777085 0.3708339
0.3566556 0.37486106 0.41568914 0.39990324 0.41333336 0.3709988 0.38857844 0.43377262
0.3809284 0.37785262 0.41743582 0.36347556 0.3075219 0.2996851 0.33330378 0.27569696
0.3261665 0.33963674 0.2317333 0.115090296 0.032460485 0.022355668 0.009807632 -0.037194036
0.020812485 0.019596124 0.060341742 0.013469547 0.09529625 0.08866544 0.11104975 0.09749768
0.046974756 0.042990103 0.040606063 0.06768078 0.09451499 0.10033432 0.09819493 0.0521526
0.015611797 0.06394106 0.10499556 0.0678735 0.06300205 0.10657427 0.06770133 0.13898851
0.118881285 0.10310649 0.09514881 0.10342043 0.06131787 0.08755019 0.08464222 0.06887334
0.0037511778 -0.0018682426 0.047529455 0.04980207 0.0129999155 0.071515724 0.08387909 0.09717444
0.07285863 0.0135601945 0.070784666 0.04344749

29 f4 [4, 3, 3, 3]
00000000: b04e 11be 7b01 3d3f b124 3d3f e08f 22bf
00000010: 8dd2 f63d e2d7 c23e 1112 bcbf 0463 55bf
00000020: 9081 13be 3479 a7be 1c81 883e e5f5 673d
00000030: fd9b 49bf b4b7 173e b5c8 bb3e 05fc 26bf
00000040: 185e 01bf 599b 3fbf 3ef7 35be 2094 b8bd
00000050: a2a7 8abc cf4c bbbe 9ba4 78be 23b4 003e
00000060: bd22 40bf 92fa 4bbe 95e5 18bf c8d2 00be
00000070: f8b1 cc3c 72ff 023f a863 ee3e c82d 9dbe
00000080: 667f 8e3e f418 f2bc 75d0 b53d 7cac 10be
00000090: 873e 023b 23ee 103e e00d b4bb 6767 9e3d
000000a0: 54ce 673e ab21 9f3e c184 cf3e 4013 86bd
000000b0: 8c62 b93e 137f a33e 5b9a 06be 6d2e a9bd
000000c0: e216 d83d d000 793e 26a5 65be 8fcb c93c
000000d0: 0587 d9bd b724 ad3e 1e1c cabe 70c5 613f
000000e0: f374 d6be 2c27 a0be d289 2c3f 5135 0cc0
000000f0: 2ee5 053f 4129 563f aba3 0cbf 61f4 2b3f
00000100: c4c1 0f3f f767 cfbf 118d 0e3d 50a6 323f
00000110: 36f2 85be 0312 4cbe f535 6e3f af14 bfbf
00000120: 08dd 9ebf b46e 843f db42 03c0 3f08 353d
00000130: 7d04 50bc de78 06c0 f962 5fbf 2707 4d3f
00000140: ab0c 59be 6042 5ebe 7ade 00bf 1c57 143d
00000150: e9f8 e2bb 4603 ab3d c988 d4be f081 c03d
00000160: aeaf dd3e 43e8 863c 005f b83d 14c8 89bd
00000170: a7a7 90be 1060 543c e247 83be c2d4 70bd
00000180: 99bf c73e 4539 753e 41b1 51bf f12c 113e
00000190: f725 febe 2598 3abf e14a 9abd 1bca e83e
000001a0: ef1f a8be 0536 0d3e 1ffe cbbd 8279 043d
-0.14190173 0.73830384 0.7388411 -0.63500786 0.12051878 0.3805533 -1.4693013 -0.8335421
-0.14404893 -0.32709658 0.26661003 0.056630988 -0.78753644 0.14816171 0.36676565 -0.652283
-0.505342 -0.74846417 -0.17770097 -0.090126276 -0.016925637 -0.36582038 -0.24281542 0.12568717
-0.75053006 -0.19919804 -0.59725314 -0.12580407 0.024987206 0.5117103 0.46560407 -0.3069899
0.27831572 -0.029552914 0.08877651 -0.14128298 0.0019873695 0.14153342 -0.005494818 0.07734566
0.22637302 0.31080374 0.4053097 -0.065466404 0.36207998 0.31932887 -0.1314482 -0.08260808
0.105512396 0.24316716 -0.2242628 0.024633197 -0.10621456 0.33817074 -0.39474577 0.8819189
-0.418861 -0.31279886 0.673978 -2.1907542 0.52302825 0.836567 -0.5493724 0.6716977
0.5615504 -1.6203603 0.0348025 0.6978502 -0.26161355 -0.19928746 0.9305108 -1.4928187
-1.2411203 1.0346284 -2.0509555 0.044197317 -0.012696383 -2.1011271 -0.87260395 0.8008904
-0.21196239 -0.21705008 -0.5033947 0.036215886 -0.006926645 0.08350234 -0.4151061 0.093997836
0.43298095 0.016468173 0.09002495 -0.06727615 -0.2825291 0.012962356 -0.2564078 -0.05879665
0.39013365 0.23947628 -0.81911093 0.141773 -0.4963834 -0.72888404 -0.07533813 0.45466694
-0.32836863 0.13790138 -0.09960579 0.03234244

30 f4 [4]
00000000: c358 5f40 1432 b1bf c3e6 7040 7591 1640
3.4897926 -1.3843408 3.7640846 2.352628

32 f4 [4, 4, 3, 3]
00000000: 9a05 a1bd f960 91bd f39c 48bd cff6 da3c
00000010: f1af 06bd eb35 223d 8c1d 8ebd e6a2 7a3c
00000020: f5db b2bc 8041 433c 6cdb 3dbd 3d4e 353c
00000030: 3f38 3b3c 161e 0e3c f86c 5b3c ccae 18bc
00000040: f374 7b3c cfa0 4fbd 62d6 30bd e4f6 c0bd
00000050: ef2d 893b 9bd5 71bd f5e8 bfbd cc57 a43c
00000060: 9310 c6bd 1252 0cbe c0fb 04bd 7d1d a73c
00000070: 1357 5a3c 448b 543c 124b 213d e27b 1dbc
00000080: c41b 18bc 33c8 f23c 6714 2abd 7525 15bd
00000090: 8cb7 d93c 8972 7e3d 3a63 c43c 8ff9 eebb
000000a0: 1a13 b13d 552c ff3d 72b0 c8bc 122a 9b3b
000000b0: af7c ec3b 83f9 9abb 4ab9 e53c 4273 8ebb
000000c0: ab55 3abd 02a1 2ebd ef26 e23b 80cd c4bc
000000d0: b877 91bd aa64 10bd 25a9 8bbc 3b96 e83c
000000e0: 081e 093a dec6 7ebd e665 3a3d a617 b5bd
000000f0: 45b9 a8bd 51d8 7f3a 1fc3 dbbd 29ed 27bd
00000100: 7c80 493d 6067 d7ba 8cc1 b9bd 4426 0d3d
00000110: ef39 03bd cd24 18be 0fd8 c5bc 000e d3bc
00000120: 79fb 183c b33e 103d 7d78 aebc e5fb b03c
00000130: 8aa0 71bc 79f8 d0bc f052 42bd 07de b2bc
00000140: 4935 2dbd df28 ab3c a76a 97bd 842b 77bd
00000150: 2e29 37bd 0c76 b3bc 377f 51bd f6b6 e53c
00000160: 2347 c83c 1601 8339 9781 063d dbd6 913d
00000170: efef 1dbd 348c 61ba 9ca0 593d 6382 8fbc
00000180: 964e 1fbc 2afa d83d 586a 66bd 6075 0bbd
00000190: 00a8 333d 4d1a 38bc a622 a8bc ad96 533d
000001a0: 0188 08bd c60b 8fbc 8b33 143d 752a c8bc
000001b0: 4772 a63c 7bea c53c 2af2 163d 6794 cf3c
000001c0: ab77 7d3d 20cc 3f3d 0cf5 2fbd 3752 96bc
000001d0: f85c 2e3d 5de9 1a3c bb2e 1e3d d25b 6f3d
000001e0: f042 9abc 69d8 b5bc 97b8 063d 3caa 60bd
000001f0: 308e b4bd 2dc2 1cbc 15a5 863c acdc 59bd
00000200: e344 4e3d 2337 493c 19de aebd 5ccd 4d3d
00000210: da18 833c 6bc6 7bbd 4769 283d b36b 7e3c
00000220: 0fe3 d73c 106f a93d d3bb 35bd 2304 28bd
00000230: 3a82 833d 130a 4abd a66e 0ebd 7fb0 40bc
-0.078623965 -0.07098574 -0.048977803 0.026729016 -0.032882635 0.0396022 -0.06939229 0.015297627
-0.0218334 0.011917472 -0.046351835 0.011066017 0.011426984 0.008674165 0.013392679 -0.009319019
0.015347707 -0.05069047 -0.0431732 -0.09422091 0.004186384 -0.0590416 -0.09370605 0.020061396
-0.0967113 -0.13703182 -0.03246665 0.020399803 0.013326424 0.012972657 0.039378233 -0.0096120555
-0.009283964 0.029636478 -0.041523363 -0.036412675 0.02657678 0.062120948 0.023973096 -0.0072929333
0.086462215 0.124596275 -0.024498198 0.00473524 0.007217012 -0.004729451 0.028042454 -0.004347236
-0.045491856 -0.042634018 0.006901614 -0.024023771 -0.07102913 -0.03525225 -0.017048428 0.028391948
0.000523061 -0.062201373 0.045507334 -0.08842401 -0.08238462 0.00097597117 -0.10730576 -0.040997658
0.049194798 -0.0016434006 -0.09070119 0.03446032 -0.03203767 -0.14857788 -0.024150876 -0.025763512
0.0093372995 0.035216045 -0.021297688 0.021604488 -0.014747748 -0.025509106 -0.047442377 -0.021834387
-0.042287145 0.020893512 -0.07393389 -0.060344234 -0.044717006 -0.021906875 -0.051146712 0.028041344
0.024447983 0.00024987076 0.03283843 0.071210586 -0.038558897 -0.0008603961 0.053131685 -0.017518228
-0.009723326 0.1059459 -0.05625376 -0.034047484 0.04386139 -0.011236739 -0.020524334 0.051657367
-0.03333283 -0.017461669 0.036181968 -0.024434308 0.020318164 0.02415966 0.03685204 0.025339318
0.061881702 0.04682553 -0.042958304 -0.01834975 0.04256913 0.009455052 0.038618784 0.058437176
-0.018830746 -0.022197919 0.032890882 -0.05484985 -0.088161826 -0.0095677795 0.01643614 -0.053188965
0.050358664 0.012281212 -0.085384555 0.050244674 0.016003061 -0.061468523 0.041116025 0.015528607
0.026353387 0.082731366 -0.044368576 -0.04101957 0.06421323 -0.049326014 -0.03477349 -0.01176083

33 f4 [4]
00000000: 14c3 adbd 38ed c43e 987f a4bd 95b7 81be
-0.08484474 0.38462234 -0.08032149 -0.25335374
